…
 to device","metadata":{"execution":{"iopub.execute_input":"2025-02-15T04:21:13.683596Z","iopub.status.busy":"2025-02-15T04:21:13.683269Z","iopub.status.idle":"2025-02-15T04:21:14.044988Z","shell.execute_reply":"2025-02-15T04:21:14.043931Z"},"papermill":{"duration":0.368073,"end_time":"2025-02-15T04:21:14.046611","exception":false,"start_time":"2025-02-15T04:21:13.678538","status":"completed"},"tags":[]},"outputs":[{"data":{"text/plain":["DistilBertForMaskedLM(\n","  (activation): GELUActivation()\n","  (distilbert): DistilBertModel(\n","    (embeddings): Embeddings(\n","      (word_embeddings): Embedding(28996, 768, padding_idx=0)\n","      (position_embeddings): Embedding(512, 768)\n","      (LayerNorm): LayerNorm((768,), eps=1e-12, elementwise_affine=True)\n","      (dropout): Dropout(p=0.1, inplace=False)\n","    )\n","    (transformer): Transformer(\n","      (layer): ModuleList(\n","        (0-5): 6 x TransformerBlock(\n","          (attention): DistilBertSdpaAttention(\n","            (dropout): Dropout(p=0.1, inplace=False)\n","            (q_lin): Linear(in_features=768, out_features=768, bias=True)\n","            (k_lin): Linear(in_features=768, out_features=768, bias=True)\n","            (v_lin): Linear(in_features=768, out_features=768, bias=True)\n","            (out_lin): Linear(in_features=768, out_features=768, bias=True)\n","          )\n","          (sa_layer_norm): LayerNorm((768,), eps=1e-12, elementwise_affine=True)\n","          (ffn): FFN(\n","            (dropout): Dropout(p=0.1, inplace=False)\n","            (lin1): Linear(in_features=768, out_features=3072, bias=True)\n","            (lin2): Linear(in_features=3072, out_features=768, bias=True)\n","            (activation): GELUActivation()\n","          )\n","          (output_layer_norm): LayerNorm((768,), eps=1e-12, elementwise_affine=True)\n","        )\n","      )\n","    )\n","  )\n","  (vocab_transform): Linear(in_features=768, out_features=768, bias=True)\n","  (vocab_layer_norm): LayerNorm((768,), eps=1e-12, elementwise_affine=True)\n","  (vocab_projector): Linear(in_features=768, out_features=28996, bias=True)\n","  (mlm_loss_fct): CrossEntropyLoss()\n",")"]},"execution_count":7,"metadata":{},"output_type":"execute_result"}],"execution_count":7},{"id":"84e7ea47","cell_type":"code","source":"def tokenize_data(components, titles, descriptions,statuss,resolutions,max_length=512):\n    combined_texts = [f\"{status} [SEP] {resolution} [SEP] {component} [SEP] {t
…
